…
[1m[34mswanlab[0m[0m: Run data will be saved locally in [35m[1m/root/autodl-tmp/vlm/swanlog/run-20250418_224629-dd5cadf2[0m[0m
[1m[34mswanlab[0m[0m: 👋 Hi [1m[39maigc_zyf[0m[0m, welcome to swanlab!
[1m[34mswanlab[0m[0m: Syncing run [33mpre_train_vlm[0m to the cloud
[1m[34mswanlab[0m[0m: 🏠 View project at [34m[4mhttps://swanlab.cn/@aigc_zyf/train_vlm[0m[0m
[1m[34mswanlab[0m[0m: 🚀 View run at [34m[4mhttps://swanlab.cn/@aigc_zyf/train_vlm/runs/m5x5mux1y6nr0f91zk4tz[0m[0m
VLM(
  (vision_model): SiglipModel(
    (text_model): SiglipTextTransformer(
      (embeddings): SiglipTextEmbeddings(
        (token_embedding): Embedding(32000, 768)
        (position_embedding): Embedding(64, 768)
      )
      (encoder): SiglipEncoder(
        (layers): ModuleList(
          (0-11): 12 x SiglipEncoderLayer(
            (self_attn): SiglipSdpaAttention(
              (k_proj): Linear(in_features=768, out_features=768, bias=True)
              (v_proj): Linear(in_features=768, out_features=768, bias=True)
              (q_proj): Linear(in_features=768, out_features=768, bias=True)
              (out_proj): Linear(in_features=768, out_features=768, bias=True)
            )
            (layer_norm1): LayerNorm((768,), eps=1e-06, elementwise_affine=True)
            (mlp): SiglipMLP(
              (activation_fn): PytorchGELUTanh()
              (fc1): Linear(in_features=768, out_features=3072, bias=True)
              (fc2): Linear(in_features=3072, out_features=768, bias=True)
            )
            (layer_norm2): LayerNorm((768,), eps=1e-06, elementwise_affine=True)
          )
        )
      )
      (final_layer_norm): LayerNorm((768,), eps=1e-06, elementwise_affine=True)
      (head): Linear(in_features=768, out_features=768, bias=True)
    )
    (vision_model): SiglipVisionTransformer(
      (embeddings): SiglipVisionEmbeddings(
        (patch_embedding): Conv2d(3, 768, kernel_size=(16, 16), stride=(16, 16), padding=valid)
        (position_embedding): Embedding(196, 768)
      )
      (encoder): SiglipEncoder(
        (layers): ModuleList(
          (0-11): 12 x SiglipEncoderLayer(
            (self_attn): SiglipSdpaAttention(
              (k_proj): Linear(in_features=768, out_features=768, bias=True)
              (v_proj): Linear(in_features=768, out_features=768, bias=True)
              (q_proj): Linear(in_features=768, out_features=768, bias=True)
              (out_proj): Linear(in_features=768, out_features=768, bias=True)
            )
            (layer_norm1): LayerNorm((768,), eps=1e-06, elementwise_affine=True)
            (mlp): SiglipMLP(
              (activation_fn): PytorchGELUTanh()
              (fc1): Linear(in_features=768, out_features=3072, bias=True)
              (fc2): Linear(in_features=3072, out_features=768, bias=True)
            )
            (layer_norm2): LayerNorm((768,), eps=1e-06, elementwise_affine=True)
          )
        )
      )
      (post_layernorm): LayerNorm((768,), eps=1e-06, elementwise_affine=True)
      (head): SiglipMultiheadAttentionPoolingHead(
        (attention): MultiheadAttention(
          (out_proj): NonDynamicallyQuantizableLinear(in_features=768, out_features=768, bias=True)
        )
        (layernorm): LayerNorm((768,), eps=1e-06, elementwise_affine=True)
        (mlp): SiglipMLP(
          (activation_fn): PytorchGELUTanh()
          (fc1): Linear(in_features=768, out_features=3072, bias=True)
          (fc2): Linear(in_features=3072, out_features=768, bias=True)
        )
      )
    )
  )
  (llm_model): Qwen2ForCausalLM(
    (model): Qwen2Model(
      (embed_tokens): Embedding(151936, 896)
      (layers): ModuleList(
        (0-23): 24 x Qwen2DecoderLayer(
          (self_attn): Qwen2Attention(
            (q_proj): Linear(in_features=896, out_features=896, bias=True)
            (k_proj): Linear(in_features=896, out_features=128, bias=True)
            (v_proj): Linear(in_features=896, out_features=128, bias=True)
            (o_proj): Linear(in_features=896, out_features=896, bias=False)
          )
          (mlp): Qwen2MLP(
            (gate_proj): Linear(in_features=896, out_features=4864, bias=False)
            (up_proj): Linear(in_features=896, out_features=4864, bias=False)
            (down_proj): Linear(in_features=4864, out_features=896, bias=False)
            (act_fn): SiLU()
          )
          (input_layernorm): Qwen2RMSNorm((896,), eps=1e-06)
          (post_attention_layernorm): Qwen2RMSNorm((896,), eps=1e-06)
        )
      )
      (norm): Qwen2RMSNorm((896,), eps=1e-06)
      (rotary_emb): Qwen2RotaryEmbedding()
    )
    (lm_head): Linear(in_features=896, out_features=151936, bias=False)
  )
  (visionProj): VisionProj(
    (linear1): Linear(in_features=3072, out_features=896, bias=True)
    (linear2): Linear(in_features=896, out_features=896, bias=True)
  )
)
模型参数量为：3557120
  0%|          | 0/6201 [00:00<?, ?it/s]  0%|          | 1/6201 [00:03<6:37:43,  3.85s/it]  0%|          | 2/6201 [00:06<4:58:37,  2.89s/it]  0%|          | 3/6201 [00:08<4:26:48,  2.58s/it]  0%|          | 4/6201 [00:10<4:11:42,  2.44s/it]  0%|          | 5/6201 [00:12<4:03:23,  2.36s/it]  0%|          | 6/6201 [00:14<3:58:
…
